…
lp_ratio': 4, 'qkv_bias': True, 'qk_scale': None, 'drop_rate': 0.0, 'attn_drop_rate': 0.0, 'drop_path_rate': 0.2, 'patch_norm': True, 'out_indices': (1, 2, 3), 'with_cp': True, 'convert_weights': False}
Loads checkpoint by local backend from path: /mnt/disks/ext/exps/mini_coco/grounding_dino_swin-t_finetune_custom_dataset/E1/best_coco_bbox_mAP_epoch_2.pth
>>>>>>>>>>>>>>>>_freeze_stages =  -1
>>>>>>>>>>>>>>>>_freeze_stages =  -1
>>>>>>>>>>>>>>>>_freeze_stages =  -1
Sequential(
  (backbone): SwinTransformer(
    (patch_embed): PatchEmbed(
      (adap_padding): AdaptivePadding()
      (projection): Conv2d(3, 96, kernel_size=(4, 4), stride=(4, 4))
      (norm): LayerNorm((96,), eps=1e-05, elementwise_affine=True)
    )
    (drop_after_pos): Dropout(p=0.0, inplace=False)
    (stages): ModuleList(
      (0): SwinBlockSequence(
        (blocks): ModuleList(
          (0-1): 2 x SwinBlock(
            (norm1): LayerNorm((96,), eps=1e-05, elementwise_affine=True)
            (attn): ShiftWindowMSA(
              (w_msa): WindowMSA(
                (qkv): Linear(in_features=96, out_features=288, bias=True)
                (attn_drop): Dropout(p=0.0, inplace=False)
                (proj): Linear(in_features=96, out_features=96, bias=True)
                (proj_drop): Dropout(p=0.0, inplace=False)
                (softmax): Softmax(dim=-1)
              )
              (drop): DropPath()
            )
            (norm2): LayerNorm((96,), eps=1e-05, elementwise_affine=True)
            (ffn): FFN(
              (layers): Sequential(
                (0): Sequential(
                  (0): Linear(in_features=96, out_features=384, bias=True)
                  (1): GELU(approximate='none')
                  (2): Dropout(p=0.0, inplace=False)
                )
                (1): Linear(in_features=384, out_features=96, bias=True)
                (2): Dropout(p=0.0, inplace=False)
              )
              (dropout_layer): DropPath()
              (gamma2): Identity()
            )
          )
        )
        (downsample): PatchMerging(
          (adap_padding): AdaptivePadding()
          (sampler): Unfold(kernel_size=(2, 2), dilation=(1, 1), padding=(0, 0), stride=(2, 2))
          (norm): LayerNorm((384,), eps=1e-05, elementwise_affine=True)
          (reduction): Linear(in_features=384, out_features=192, bias=False)
        )
      )
      (1): SwinBlockSequence(
        (blocks): ModuleList(
          (0-1): 2 x SwinBlock(
            (norm1): LayerNorm((192,), eps=1e-05, elementwise_affine=True)
            (attn): ShiftWindowMSA(
              (w_msa): WindowMSA(
                (qkv): Linear(in_features=192, out_features=576, bias=True)
                (attn_drop): Dropout(p=0.0, inplace=False)
                (proj): Linear(in_features=192, out_features=192, bias=True)
                (proj_drop): Dropout(p=0.0, inplace=False)
                (softmax): Softmax(dim=-1)
              )
              (drop): DropPath()
            )
            (norm2): LayerNorm((192,), eps=1e-05, elementwise_affine=True)
            (ffn): FFN(
              (layers): Sequential(
                (0): Sequential(
                  (0): Linear(in_features=192, out_features=768, bias=True)
                  (1): GELU(approximate='none')
                  (2): Dropout(p=0.0, inplace=False)
                )
                (1): Linear(in_features=768, out_features=192, bias=True)
                (2): Dropout(p=0.0, inplace=False)
              )
              (dropout_layer): DropPath()
              (gamma2): Identity()
            )
          )
        )
        (downsample): PatchMerging(
          (adap_padding): AdaptivePadding()
          (sampler): Unfold(kernel_size=(2, 2), dilation=(1, 1), padding=(0, 0), stride=(2, 2))
          (norm): LayerNorm((768,), eps=1e-05, elementwise_affine=True)
          (reduction): Linear(in_features=768, out_features=384, bias=False)
        )
      )
      (2): SwinBlockSequence(
        (blocks): ModuleList(
          (0-5): 6 x SwinBlock(
            (norm1): LayerNorm((384,), eps=1e-05, elementwise_affine=True)
            (attn): ShiftWindowMSA(
              (w_msa): WindowMSA(
                (qkv): Linear(in_features=384, out_features=1152, bias=True)
                (attn_drop): Dropout(p=0.0, inplace=False)
                (proj): Linear(in_features=384, out_features=384, bias=True)
                (proj_drop): Dropout(p=0.0, inplace=False)
                (softmax): Softmax(dim=-1)
              )
              (drop): DropPath()
            )
            (norm2): LayerNorm((384,), eps=1e-05, elementwise_affine=True)
            (ffn): FFN(
              (layers): Sequential(
                (0): Sequential(
                  (0): Linear(in_features=384, out_features=1536, bias=True)
                  (1): GELU(approximate='none')
                  (2): Dropout(p=0.0, inplace=False)
                )
                (1): Linear(in_features=1536, out_features=384, bias=True)
                (2): Dropout(p=0.0, inplace=False)
              )
              (dropout_layer): DropPath()
              (gamma2): Identity()
            )
          )
        )
        (downsample): PatchMerging(
          (adap_padding): AdaptivePadding()
          (sampler): Unfold(kernel_size=(2, 2), dilation=(1, 1), padding=(0, 0), stride=(2, 2))
          (norm): LayerNorm((1536,), eps=1e-05, elementwise_affine=True)
          (reduction): Linear(in_features=1536, out_features=768, bias=False)
        )
      )
      (3): SwinBlockSequence(
        (blocks): ModuleList(
          (0-1): 2 x SwinBlock(
            (norm1): LayerNorm((768,), eps=1e-05, elementwise_affine=True)
            (attn): ShiftWindowMSA(
              (w_msa): WindowMSA(
                (qkv): Linear(in_features=768, out_features=2304, bias=True)
                (attn_drop): Dropout(p=0.0, inplace=False)
                (proj): Linear(in_features=768, out_features=768, bias=True)
                (proj_drop): Dropout(p=0.0, inplace=False)
                (softmax): Softmax(dim=-1)
              )
              (drop): DropPath()
            )
            (norm2): LayerNorm((768,), eps=1e-05, elementwise_affine=True)
            (ffn): FFN(
              (layers): Sequential(
                (0): Sequential(
                  (0): Linear(in_features=768, out_features=3072, bias=True)
                  (1): GELU(approximate='none')
                  (2): Dropout(p=0.0, inplace=False)
                )
                (1): Linear(in_features=3072, out_features=768, bias=True)
                (2): Dropout(p=0.0, inplace=False)
              )
              (dropout_layer): DropPath()
              (gamma2): Identity()
            )
          )
        )
      )
    )
    (norm1): LayerNorm((192,), eps=1e-05, elementwise_affine=True)
    (norm2): LayerNorm((384,), eps=1e-05, elementwise_affine=True)
    (norm3): LayerNorm((768,), eps=1e-05, elementwise_affine=True)
  )
  (neck): ChannelMapper(
    (convs): ModuleList(
      (0): ConvModule(
        (conv): Conv2d(192, 256, kernel_size=(1, 1), stride=(1, 1))
        (gn): GroupNorm(32, 256, eps=1e-05, affine=True)
      )
      (1): ConvModule(
        (conv): Conv2d(384, 256, kernel_size=(1, 1), stride=(1, 1))
        (gn): GroupNorm(32, 256, eps=1e-05, affine=True)
      )
      (2): ConvModule(
        (conv): Conv2d(768, 256, kernel_size=(1, 1), stride=(1, 1))
        (gn): GroupNorm(32, 256, eps=1e-05, affine=True)
      )
    )
    (extra_convs): ModuleList(
      (0): ConvModule(
        (conv): Conv2d(768, 256, kernel_size=(3, 3), stride=(2, 2), padding=(1, 1))
        (gn): GroupNorm(32, 256, eps=1e-05, affine=True)
      )
    )
  )
  init_cfg={'type': 'Xavier', 'layer': 'Conv2d', 'distribution': 'uniform'}
)
-----NEW SwinTransformer FORWARD PASS 



		SwinTransformer input shape:  torch.Size([1, 3, 800, 1333])


------------SwinBlockSequence -  torch.Size([1, 66800, 96])
with_cp =  False
x.requires_grad =  True
…
_record_grad_fn <class 'torch.nn.modules.conv.Conv2d'>, True, grad_fn: <ConvolutionBackward0 object at 0x7fbf127dcd00>
_record_grad_fn <class 'torch.nn.modules.normalization.GroupNorm'>, True, grad_fn: <NativeGroupNormBackward0 object at 0x7fbf127dcd30>
_record_grad_fn <class 'torch.nn.modules.conv.Conv2d'>, True, grad_fn: <ConvolutionBackward0 object at 0x7fbf127dcc10>
_record_grad_fn <class 'torch.nn.modules.normalization.GroupNorm'>, True, grad_fn: <NativeGroupNormBackward0 object at 0x7fbf127dce50>

visited =  {Conv2d(3, 96, kernel_size=(4, 4), stride=(4, 4)): 2, LayerNorm((96,), eps=1e-05, elementwise_affine=True): 1, LayerNorm((96,), eps=1e-05, elementwise_affine=True): 1, WindowMSA(
  (qkv): Linear(in_features=96, out_features=288, bias=True)
  (attn_drop): Dropout(p=0.0, inplace=False)
  (proj): Linear(in_features=96, out_features=96, bias=True)
  (proj_drop): Dropout(p=0.0, inplace=False)
  (softmax): Softmax(dim=-1)
): 1, LayerNorm((96,), eps=1e-05, elementwise_affine=True): 1, Linear(in_features=96, out_features=384, bias=True): 1, Linear(in_features=384, out_features=96, bias=True): 1, LayerNorm((96,), eps=1e-05, elementwise_affine=True): 1, WindowMSA(
  (qkv): Linear(in_features=96, out_features=288, bias=True)
  (attn_drop): Dropout(p=0.0, inplace=False)
  (proj): Linear(in_features=96, out_features=96, bias=True)
  (proj_drop): Dropout(p=0.0, inplace=False)
  (softmax): Softmax(dim=-1)
): 1, LayerNorm((96,), eps=1e-05, elementwise_affine=True): 1, Linear(in_features=96, out_features=384, bias=True): 1, Linear(in_features=384, out_features=96, bias=True): 1, PatchMerging(
  (adap_padding): AdaptivePadding()
  (sampler): Unfold(kernel_size=(2, 2), dilation=(1, 1), padding=(0, 0), stride=(2, 2))
  (norm): LayerNorm((384,), eps=1e-05, elementwise_affine=True)
  (reduction): Linear(in_features=384, out_features=192, bias=False)
): 1, LayerNorm((192,), eps=1e-05, elementwise_affine=True): 1, WindowMSA(
  (qkv): Linear(in_features=192, out_features=576, bias=True)
  (attn_drop): Dropout(p=0.0, inplace=False)
  (proj): Linear(in_features=192, out_features=192, bias=True)
  (proj_drop): Dropout(p=0.0, inplace=False)
  (softmax): Softmax(dim=-1)
): 1, LayerNorm((192,), eps=1e-05, elementwise_affine=True): 1, Linear(in_features=192, out_features=768, bias=True): 1, Linear(in_features=768, out_features=192, bias=True): 1, LayerNorm((192,), eps=1e-05, elementwise_affine=True): 1, WindowMSA(
  (qkv): Linear(in_features=192, out_features=576, bias=True)
  (attn_drop): Dropout(p=0.0, inplace=False)
  (proj): Linear(in_features=192, out_features=192, bias=True)
  (proj_drop): Dropout(p=0.0, inplace=False)
  (softmax): Softmax(dim=-1)
): 1, LayerNorm((192,), eps=1e-05, elementwise_affine=True): 1, Linear(in_features=192, out_features=768, bias=True): 1, Linear(in_features=768, out_features=192, bias=True): 1, PatchMerging(
  (adap_padding): AdaptivePadding()
  (sampler): Unfold(kernel_size=(2, 2), dilation=(1, 1), padding=(0, 0), stride=(2, 2))
  (norm): LayerNorm((768,), eps=1e-05, elementwise_affine=True)
  (reduction): Linear(in_features=768, out_features=384, bias=False)
): 1, LayerNorm((192,), eps=1e-05, elementwise_affine=True): 1, LayerNorm((384,), eps=1e-05, elementwise_affine=True): 1, WindowMSA(
  (qkv): Linear(in_features=384, out_features=1152, bias=True)
  (attn_drop): Dropout(p=0.0, inplace=False)
  (proj): Linear(in_features=384, out_features=384, bias=True)
  (proj_drop): Dropout(p=0.0, inplace=False)
  (softmax): Softmax(dim=-1)
): 1, LayerNorm((384,), eps=1e-05, elementwise_affine=True): 1, Linear(in_features=384, out_features=1536, bias=True): 1, Linear(in_features=1536, out_features=384, bias=True): 1, LayerNorm((384,), eps=1e-05, elementwise_affine=True): 1, WindowMSA(
  (qkv): Linear(in_features=384, out_features=1152, bias=True)
  (attn_drop): Dropout(p=0.0, inplace=False)
  (proj): Linear(in_features=384, out_features=384, bias=True)
  (proj_drop): Dropout(p=0.0, inplace=False)
  (softmax): Softmax(dim=-1)
): 1, LayerNorm((384,), eps=1e-05, elementwise_affine=True): 1, Linear(in_features=384, out_features=1536, bias=True): 1, Linear(in_features=1536, out_features=384, bias=True): 1, LayerNorm((384,), eps=1e-05, elementwise_affine=True): 1, WindowMSA(
  (qkv): Linear(in_features=384, out_features=1152, bias=True)
  (attn_drop): Dropout(p=0.0, inplace=False)
  (proj): Linear(in_features=384, out_features=384, bias=True)
  (proj_drop): Dropout(p=0.0, inplace=False)
  (softmax): Softmax(dim=-1)
): 1, LayerNorm((384,), eps=1e-05, elementwise_affine=True): 1, Linear(in_features=384, out_features=1536, bias=True): 1, Linear(in_features=1536, out_features=384, bias=True): 1, LayerNorm((384,), eps=1e-05, elementwise_affine=True): 1, WindowMSA(
  (qkv): Linear(in_features=384, out_features=1152, bias=True)
  (attn_drop): Dropout(p=0.0, inplace=False)
  (proj): Linear(in_features=384, out_features=384, bias=True)
  (proj_drop): Dropout(p=0.0, inplace=False)
  (softmax): Softmax(dim=-1)
): 1, LayerNorm((384,), eps=1e-05, elementwise_affine=True): 1, Linear(in_features=384, out_features=1536, bias=True): 1, Linear(in_features=1536, out_features=384, bias=True): 1, LayerNorm((384,), eps=1e-05, elementwise_affine=True): 1, WindowMSA(
  (qkv): Linear(in_features=384, out_features=1152, bias=True)
  (attn_drop): Dropout(p=0.0, inplace=False)
  (proj): Linear(in_features=384, out_features=384, bias=True)
  (proj_drop): Dropout(p=0.0, inplace=False)
  (softmax): Softmax(dim=-1)
): 1, LayerNorm((384,), eps=1e-05, elementwise_affine=True): 1, Linear(in_features=384, out_features=1536, bias=True): 1, Linear(in_features=1536, out_features=384, bias=True): 1, LayerNorm((384,), eps=1e-05, elementwise_affine=True): 1, WindowMSA(
  (qkv): Linear(in_features=384, out_features=1152, bias=True)
  (attn_drop): Dropout(p=0.0, inplace=False)
  (proj): Linear(in_features=384, out_features=384, bias=True)
  (proj_drop): Dropout(p=0.0, inplace=False)
  (softmax): Softmax(dim=-1)
): 1, LayerNorm((384,), eps=1e-05, elementwise_affine=True): 1, Linear(in_features=384, out_features=1536, bias=True): 1, Linear(in_features=1536, out_features=384, bias=True): 1, PatchMerging(
  (adap_padding): AdaptivePadding()
  (sampler): Unfold(kernel_size=(2, 2), dilation=(1, 1), padding=(0, 0), stride=(2, 2))
  (norm): LayerNorm((1536,), eps=1e-05, elementwise_affine=True)
  (reduction): Linear(in_features=1536, out_features=768, bias=False)
): 1, LayerNorm((384,), eps=1e-05, elementwise_affine=True): 1, LayerNorm((768,), eps=1e-05, elementwise_affine=True): 1, WindowMSA(
  (qkv): Linear(in_features=768, out_features=2304, bias=True)
  (attn_drop): Dropout(p=0.0, inplace=False)
  (proj): Linear(in_features=768, out_features=768, bias=True)
  (proj_drop): Dropout(p=0.0, inplace=False)
  (softmax): Softmax(dim=-1)
): 1, LayerNorm((768,), eps=1e-05, elementwise_affine=True): 1, Linear(in_features=768, out_features=3072, bias=True): 1, Linear(in_features=3072, out_features=768, bias=True): 1, LayerNorm((768,), eps=1e-05, elementwise_affine=True): 1, WindowMSA(
  (qkv): Linear(in_features=768, out_features=2304, bias=True)
  (attn_drop): Dropout(p=0.0, inplace=False)
  (proj): Linear(in_features=768, out_features=768, bias=True)
  (proj_drop): Dropout(p=0.0, inplace=False)
  (softmax): Softmax(dim=-1)
): 1, LayerNorm((768,), eps=1e-05, elementwise_affine=True): 1, Linear(in_features=768, out_features=3072, bias=True): 1, Linear(in_features=3072, out_features=768, bias=True): 1, LayerNorm((768,), eps=1e-05, elementwise_affine=True): 1, Conv2d(192, 256, kernel_size=(1, 1), strid
…
[0] prune_out_channels on neck.extra_convs.0.conv (Conv2d(384, 256, kernel_size=(3, 3), stride=(2, 2), padding=(1, 1))) => prune_out_channels on neck.extra_convs.0.conv (Conv2d(384, 256, kernel_size=(3, 3), stride=(2, 2), padding=(1, 1))), #idxs=128
[1] prune_out_channels on neck.extra_convs.0.conv (Conv2d(384, 256, kernel_size=(3, 3), stride=(2, 2), padding=(1, 1))) => prune_out_channels on neck.extra_convs.0.gn (GroupNorm(32, 256, eps=1e-05, affine=True)), #idxs=128
--------------------------------

Sequential(
  (backbone): SwinTransformer(
    (patch_embed): PatchEmbed(
      (adap_padding): AdaptivePadding()
      (projection): Conv2d(3, 48, kernel_size=(4, 4), stride=(4, 4))
      (norm): LayerNorm((48,), eps=1e-05, elementwise_affine=True)
    )
    (drop_after_pos): Dropout(p=0.0, inplace=False)
    (stages): ModuleList(
      (0): SwinBlockSequence(
        (blocks): ModuleList(
          (0-1): 2 x SwinBlock(
            (norm1): LayerNorm((48,), eps=1e-05, elementwise_affine=True)
            (attn): ShiftWindowMSA(
              (w_msa): WindowMSA(
                (qkv): Linear(in_features=48, out_features=96, bias=True)
                (attn_drop): Dropout(p=0.0, inplace=False)
                (proj): Linear(in_features=48, out_features=48, bias=True)
                (proj_drop): Dropout(p=0.0, inplace=False)
                (softmax): Softmax(dim=-1)
              )
              (drop): DropPath()
            )
            (norm2): LayerNorm((48,), eps=1e-05, elementwise_affine=True)
            (ffn): FFN(
              (layers): Sequential(
                (0): Sequential(
                  (0): Linear(in_features=48, out_features=192, bias=True)
                  (1): GELU(approximate='none')
                  (2): Dropout(p=0.0, inplace=False)
                )
                (1): Linear(in_features=192, out_features=48, bias=True)
                (2): Dropout(p=0.0, inplace=False)
              )
              (dropout_layer): DropPath()
              (gamma2): Identity()
            )
          )
        )
        (downsample): PatchMerging(
          (adap_padding): AdaptivePadding()
          (sampler): Unfold(kernel_size=(2, 2), dilation=(1, 1), padding=(0, 0), stride=(2, 2))
          (norm): LayerNorm((192,), eps=1e-05, elementwise_affine=True)
          (reduction): Linear(in_features=192, out_features=96, bias=False)
        )
      )
      (1): SwinBlockSequence(
        (blocks): ModuleList(
          (0-1): 2 x SwinBlock(
            (norm1): LayerNorm((96,), eps=1e-05, elementwise_affine=True)
            (attn): ShiftWindowMSA(
              (w_msa): WindowMSA(
                (qkv): Linear(in_features=96, out_features=192, bias=True)
                (attn_drop): Dropout(p=0.0, inplace=False)
                (proj): Linear(in_features=96, out_features=96, bias=True)
                (proj_drop): Dropout(p=0.0, inplace=False)
                (softmax): Softmax(dim=-1)
              )
              (drop): DropPath()
            )
            (norm2): LayerNorm((96,), eps=1e-05, elementwise_affine=True)
            (ffn): FFN(
              (layers): Sequential(
                (0): Sequential(
                  (0): Linear(in_features=96, out_features=384, bias=True)
                  (1): GELU(approximate='none')
                  (2): Dropout(p=0.0, inplace=False)
                )
                (1): Linear(in_features=384, out_features=96, bias=True)
                (2): Dropout(p=0.0, inplace=False)
              )
              (dropout_layer): DropPath()
              (gamma2): Identity()
            )
          )
        )
        (downsample): PatchMerging(
          (adap_padding): AdaptivePadding()
          (sampler): Unfold(kernel_size=(2, 2), dilation=(1, 1), padding=(0, 0), stride=(2, 2))
          (norm): LayerNorm((384,), eps=1e-05, elementwise_affine=True)
          (reduction): Linear(in_features=384, out_features=192, bias=False)
        )
      )
      (2): SwinBlockSequence(
        (blocks): ModuleList(
          (0-5): 6 x SwinBlock(
            (norm1): LayerNorm((192,), eps=1e-05, elementwise_affine=True)
            (attn): ShiftWindowMSA(
              (w_msa): WindowMSA(
                (qkv): Linear(in_features=192, out_features=384, bias=True)
                (attn_drop): Dropout(p=0.0, inplace=False)
                (proj): Linear(in_features=192, out_features=192, bias=True)
                (proj_drop): Dropout(p=0.0, inplace=False)
                (softmax): Softmax(dim=-1)
              )
              (drop): DropPath()
            )
            (norm2): LayerNorm((192,), eps=1e-05, elementwise_affine=True)
            (ffn): FFN(
              (layers): Sequential(
                (0): Sequential(
                  (0): Linear(in_features=192, out_features=768, bias=True)
                  (1): GELU(approximate='none')
                  (2): Dropout(p=0.0, inplace=False)
                )
                (1): Linear(in_features=768, out_features=192, bias=True)
                (2): Dropout(p=0.0, inplace=False)
              )
              (dropout_layer): DropPath()
              (gamma2): Identity()
            )
          )
        )
        (downsample): PatchMerging(
          (adap_padding): AdaptivePadding()
          (sampler): Unfold(kernel_size=(2, 2), dilation=(1, 1), padding=(0, 0), stride=(2, 2))
          (norm): LayerNorm((768,), eps=1e-05, elementwise_affine=True)
          (reduction): Linear(in_features=768, out_features=384, bias=False)
        )
      )
      (3): SwinBlockSequence(
        (blocks): ModuleList(
          (0-1): 2 x SwinBlock(
            (norm1): LayerNorm((384,), eps=1e-05, elementwise_affine=True)
            (attn): ShiftWindowMSA(
              (w_msa): WindowMSA(
                (qkv): Linear(in_features=384, out_features=768, bias=True)
                (attn_drop): Dropout(p=0.0, inplace=False)
                (proj): Linear(in_features=384, out_features=384, bias=True)
                (proj_drop): Dropout(p=0.0, inplace=False)
                (softmax): Softmax(dim=-1)
              )
              (drop): DropPath()
            )
            (norm2): LayerNorm((384,), eps=1e-05, elementwise_affine=True)
            (ffn): FFN(
              (layers): Sequential(
                (0): Sequential(
                  (0): Linear(in_features=384, out_features=1536, bias=True)
                  (1): GELU(approximate='none')
                  (2): Dropout(p=0.0, inplace=False)
                )
                (1): Linear(in_features=1536, out_features=384, bias=True)
                (2): Dropout(p=0.0, inplace=False)
              )
              (dropout_layer): DropPath()
              (gamma2): Identity()
            )
          )
        )
      )
    )
    (norm1): LayerNorm((96,), eps=1e-05, elementwise_affine=True)
    (norm2): LayerNorm((192,), eps=1e-05, elementwise_affine=True)
    (norm3): LayerNorm((384,), eps=1e-05, elementwise_affine=True)
  )
  (neck): ChannelMapper(
    (convs): ModuleList(
      (0): ConvModule(
        (conv): Conv2d(96, 128, kernel_size=(1, 1), stride=(1, 1))
        (gn): GroupNorm(32, 128, eps=1e-05, affine=True)
      )
      (1): ConvModule(
        (conv): Conv2d(192, 128, kernel_size=(1, 1), stride=(1, 1))
        (gn): GroupNorm(32, 128, eps=1e-05, affine=True)
      )
      (2): ConvModule(
        (conv): Conv2d(384, 128, kernel_size=(1, 1), stride=(1, 1))
        (gn): GroupNorm(32, 128, eps=1e-05, affine=True)
      )
    )
    (extra_convs): ModuleList(
      (0): ConvModule(
        (conv): Conv2d(384, 128, kernel_size=(3, 3), stride=(2, 2), padding=(1, 1))
        (gn): GroupNorm(32, 128, eps=1e-05, affine=True)
      )
    )
  )
  init_cfg={'type': 'Xavier', 'layer': 'Conv2d', 'distribution': 'uniform'}
)
- prev m.qkv.out_features =  96
- prev m.qkv.in_features =  48
 - prev m.num_heads =  3
 - prev m.embed_dims =  96
head_embed_dims =  32
0.1767766952966369 96
 - after m.embed_dims =  96
…
