Base forward_time =  1.1920928955078125e-06
Base fps =  838860.8
SwinTransformer(
  (patch_embed): PatchEmbed(
    (adap_padding): AdaptivePadding()
    (projection): Conv2d(3, 96, kernel_size=(4, 4), stride=(4, 4))
    (norm): LayerNorm((96,), eps=1e-05, elementwise_affine=True)
  )
  (drop_after_pos): Dropout(p=0.0, inplace=False)
  (stages): ModuleList(
    (0): SwinBlockSequence(
      (blocks): ModuleList(
        (0-1): 2 x SwinBlock(
          (norm1): LayerNorm((96,), eps=1e-05, elementwise_affine=True)
          (attn): ShiftWindowMSA(
            (w_msa): WindowMSA(
              (qkv): Linear(in_features=96, out_features=288, bias=True)
              (attn_drop): Dropout(p=0.0, inplace=False)
              (proj): Linear(in_features=96, out_features=96, bias=True)
              (proj_drop): Dropout(p=0.0, inplace=False)
              (softmax): Softmax(dim=-1)
            )
            (drop): DropPath()
          )
          (norm2): LayerNorm((96,), eps=1e-05, elementwise_affine=True)
          (ffn): FFN(
            (layers): Sequential(
              (0): Sequential(
                (0): Linear(in_features=96, out_features=384, bias=True)
                (1): GELU(approximate='none')
                (2): Dropout(p=0.0, inplace=False)
              )
              (1): Linear(in_features=384, out_features=96, bias=True)
              (2): Dropout(p=0.0, inplace=False)
            )
            (dropout_layer): DropPath()
            (gamma2): Identity()
          )
        )
      )
      (downsample): PatchMerging(
        (adap_padding): AdaptivePadding()
        (sampler): Unfold(kernel_size=(2, 2), dilation=(1, 1), padding=(0, 0), stride=(2, 2))
        (norm): LayerNorm((384,), eps=1e-05, elementwise_affine=True)
        (reduction): Linear(in_features=384, out_features=192, bias=False)
      )
    )
    (1): SwinBlockSequence(
      (blocks): ModuleList(
        (0-1): 2 x SwinBlock(
          (norm1): LayerNorm((192,), eps=1e-05, elementwise_affine=True)
          (attn): ShiftWindowMSA(
            (w_msa): WindowMSA(
              (qkv): Linear(in_features=192, out_features=576, bias=True)
              (attn_drop): Dropout(p=0.0, inplace=False)
              (proj): Linear(in_features=192, out_features=192, bias=True)
              (proj_drop): Dropout(p=0.0, inplace=False)
              (softmax): Softmax(dim=-1)
            )
            (drop): DropPath()
          )
          (norm2): LayerNorm((192,), eps=1e-05, elementwise_affine=True)
          (ffn): FFN(
            (layers): Sequential(
              (0): Sequential(
                (0): Linear(in_features=192, out_features=768, bias=True)
                (1): GELU(approximate='none')
                (2): Dropout(p=0.0, inplace=False)
              )
              (1): Linear(in_features=768, out_features=192, bias=True)
              (2): Dropout(p=0.0, inplace=False)
            )
            (dropout_layer): DropPath()
            (gamma2): Identity()
          )
        )
      )
      (downsample): PatchMerging(
        (adap_padding): AdaptivePadding()
        (sampler): Unfold(kernel_size=(2, 2), dilation=(1, 1), padding=(0, 0), stride=(2, 2))
        (norm): LayerNorm((768,), eps=1e-05, elementwise_affine=True)
        (reduction): Linear(in_features=768, out_features=384, bias=False)
      )
    )
    (2): SwinBlockSequence(
      (blocks): ModuleList(
        (0-5): 6 x SwinBlock(
          (norm1): LayerNorm((384,), eps=1e-05, elementwise_affine=True)
          (attn): ShiftWindowMSA(
            (w_msa): WindowMSA(
              (qkv): Linear(in_features=384, out_features=1152, bias=True)
              (attn_drop): Dropout(p=0.0, inplace=False)
              (proj): Linear(in_features=384, out_features=384, bias=True)
              (proj_drop): Dropout(p=0.0, inplace=False)
              (softmax): Softmax(dim=-1)
            )
            (drop): DropPath()
          )
          (norm2): LayerNorm((384,), eps=1e-05, elementwise_affine=True)
          (ffn): FFN(
            (layers): Sequential(
              (0): Sequential(
                (0): Linear(in_features=384, out_features=1536, bias=True)
                (1): GELU(approximate='none')
                (2): Dropout(p=0.0, inplace=False)
              )
              (1): Linear(in_features=1536, out_features=384, bias=True)
              (2): Dropout(p=0.0, inplace=False)
            )
            (dropout_layer): DropPath()
            (gamma2): Identity()
          )
        )
      )
      (downsample): PatchMerging(
        (adap_padding): AdaptivePadding()
        (sampler): Unfold(kernel_size=(2, 2), dilation=(1, 1), padding=(0, 0), stride=(2, 2))
        (norm): LayerNorm((1536,), eps=1e-05, elementwise_affine=True)
        (reduction): Linear(in_features=1536, out_features=768, bias=False)
      )
    )
    (3): SwinBlockSequence(
      (blocks): ModuleList(
        (0-1): 2 x SwinBlock(
          (norm1): LayerNorm((768,), eps=1e-05, elementwise_affine=True)
          (attn): ShiftWindowMSA(
            (w_msa): WindowMSA(
              (qkv): Linear(in_features=768, out_features=2304, bias=True)
              (attn_drop): Dropout(p=0.0, inplace=False)
              (proj): Linear(in_features=768, out_features=768, bias=True)
              (proj_drop): Dropout(p=0.0, inplace=False)
              (softmax): Softmax(dim=-1)
            )
            (drop): DropPath()
          )
          (norm2): LayerNorm((768,), eps=1e-05, elementwise_affine=True)
          (ffn): FFN(
            (layers): Sequential(
              (0): Sequential(
                (0): Linear(in_features=768, out_features=3072, bias=True)
                (1): GELU(approximate='none')
                (2): Dropout(p=0.0, inplace=False)
              )
              (1): Linear(in_features=3072, out_features=768, bias=True)
              (2): Dropout(p=0.0, inplace=False)
            )
            (dropout_layer): DropPath()
            (gamma2): Identity()
          )
        )
      )
    )
  )
  (norm1): LayerNorm((192,), eps=1e-05, elementwise_affine=True)
  (norm2): LayerNorm((384,), eps=1e-05, elementwise_affine=True)
  (norm3): LayerNorm((768,), eps=1e-05, elementwise_affine=True)
)
>>>>>>>>>>>>>>>>_freeze_stages =  -1
-----NEW SwinTransformer FORWARD PASS 



		SwinTransformer input shape:  torch.Size([1, 3, 800, 1333])


------------SwinBlockSequence -  torch.Size([1, 66800, 96])
with_cp =  False
x.requires_grad =  False
ShiftWindowMSA = query view: B, L, C=  1 66800 96
	 hw_shape =  (200, 334)
	 self.window_size =  7
------------WindowMSA - x_shape Input torch.Size([1392, 49, 96])
…
self.num_features =  [96, 192, 384, 768]
_record_grad_fn <class 'torch.nn.modules.normalization.LayerNorm'>, True, grad_fn: <NativeLayerNormBackward0 object at 0x7f5c19b87a30>
stage:  3  --- norm_layer out.shape =  torch.Size([1, 1050, 768])
torch.Size([1, 768, 25, 42])
------------SwinTransformer -  [<CloneBackward0 object at 0x7f5c19b87a60>, <CloneBackward0 object at 0x7f5c19b87c70>, <CloneBackward0 object at 0x7f5c19b87ca0>]




visited =  {Conv2d(3, 96, kernel_size=(4, 4), stride=(4, 4)): 2, LayerNorm((96,), eps=1e-05, elementwise_affine=True): 1, LayerNorm((96,), eps=1e-05, elementwise_affine=True): 1, WindowMSA(
  (qkv): Linear(in_features=96, out_features=288, bias=True)
  (attn_drop): Dropout(p=0.0, inplace=False)
  (proj): Linear(in_features=96, out_features=96, bias=True)
  (proj_drop): Dropout(p=0.0, inplace=False)
  (softmax): Softmax(dim=-1)
): 1, LayerNorm((96,), eps=1e-05, elementwise_affine=True): 1, Linear(in_features=96, out_features=384, bias=True): 1, Linear(in_features=384, out_features=96, bias=True): 1, LayerNorm((96,), eps=1e-05, elementwise_affine=True): 1, WindowMSA(
  (qkv): Linear(in_features=96, out_features=288, bias=True)
  (attn_drop): Dropout(p=0.0, inplace=False)
  (proj): Linear(in_features=96, out_features=96, bias=True)
  (proj_drop): Dropout(p=0.0, inplace=False)
  (softmax): Softmax(dim=-1)
): 1, LayerNorm((96,), eps=1e-05, elementwise_affine=True): 1, Linear(in_features=96, out_features=384, bias=True): 1, Linear(in_features=384, out_features=96, bias=True): 1, PatchMerging(
  (adap_padding): AdaptivePadding()
  (sampler): Unfold(kernel_size=(2, 2), dilation=(1, 1), padding=(0, 0), stride=(2, 2))
  (norm): LayerNorm((384,), eps=1e-05, elementwise_affine=True)
  (reduction): Linear(in_features=384, out_features=192, bias=False)
): 1, LayerNorm((192,), eps=1e-05, elementwise_affine=True): 1, WindowMSA(
  (qkv): Linear(in_features=192, out_features=576, bias=True)
  (attn_drop): Dropout(p=0.0, inplace=False)
  (proj): Linear(in_features=192, out_features=192, bias=True)
  (proj_drop): Dropout(p=0.0, inplace=False)
  (softmax): Softmax(dim=-1)
): 1, LayerNorm((192,), eps=1e-05, elementwise_affine=True): 1, Linear(in_features=192, out_features=768, bias=True): 1, Linear(in_features=768, out_features=192, bias=True): 1, LayerNorm((192,), eps=1e-05, elementwise_affine=True): 1, WindowMSA(
  (qkv): Linear(in_features=192, out_features=576, bias=True)
  (attn_drop): Dropout(p=0.0, inplace=False)
  (proj): Linear(in_features=192, out_features=192, bias=True)
  (proj_drop): Dropout(p=0.0, inplace=False)
  (softmax): Softmax(dim=-1)
): 1, LayerNorm((192,), eps=1e-05, elementwise_affine=True): 1, Linear(in_features=192, out_features=768, bias=True): 1, Linear(in_features=768, out_features=192, bias=True): 1, PatchMerging(
  (adap_padding): AdaptivePadding()
  (sampler): Unfold(kernel_size=(2, 2), dilation=(1, 1), padding=(0, 0), stride=(2, 2))
  (norm): LayerNorm((768,), eps=1e-05, elementwise_affine=True)
  (reduction): Linear(in_features=768, out_features=384, bias=False)
): 1, LayerNorm((192,), eps=1e-05, elementwise_affine=True): 1, LayerNorm((384,), eps=1e-05, elementwise_affine=True): 1, WindowMSA(
  (qkv): Linear(in_features=384, out_features=1152, bias=True)
  (attn_drop): Dropout(p=0.0, inplace=False)
  (proj): Linear(in_features=384, out_features=384, bias=True)
  (proj_drop): Dropout(p=0.0, inplace=False)
  (softmax): Softmax(dim=-1)
): 1, LayerNorm((384,), eps=1e-05, elementwise_affine=True): 1, Linear(in_features=384, out_features=1536, bias=True): 1, Linear(in_features=1536, out_features=384, bias=True): 1, LayerNorm((384,), eps=1e-05, elementwise_affine=True): 1, WindowMSA(
  (qkv): Linear(in_features=384, out_features=1152, bias=True)
  (attn_drop): Dropout(p=0.0, inplace=False)
  (proj): Linear(in_features=384, out_features=384, bias=True)
  (proj_drop): Dropout(p=0.0, inplace=False)
  (softmax): Softmax(dim=-1)
): 1, LayerNorm((384,), eps=1e-05, elementwise_affine=True): 1, Linear(in_features=384, out_features=1536, bias=True): 1, Linear(in_features=1536, out_features=384, bias=True): 1, LayerNorm((384,), eps=1e-05, elementwise_affine=True): 1, WindowMSA(
  (qkv): Linear(in_features=384, out_features=1152, bias=True)
  (attn_drop): Dropout(p=0.0, inplace=False)
  (proj): Linear(in_features=384, out_features=384, bias=True)
  (proj_drop): Dropout(p=0.0, inplace=False)
  (softmax): Softmax(dim=-1)
): 1, LayerNorm((384,), eps=1e-05, elementwise_affine=True): 1, Linear(in_features=384, out_features=1536, bias=True): 1, Linear(in_features=1536, out_features=384, bias=True): 1, LayerNorm((384,), eps=1e-05, elementwise_affine=True): 1, WindowMSA(
  (qkv): Linear(in_features=384, out_features=1152, bias=True)
  (attn_drop): Dropout(p=0.0, inplace=False)
  (proj): Linear(in_features=384, out_features=384, bias=True)
  (proj_drop): Dropout(p=0.0, inplace=False)
  (softmax): Softmax(dim=-1)
): 1, LayerNorm((384,), eps=1e-05, elementwise_affine=True): 1, Linear(in_features=384, out_features=1536, bias=True): 1, Linear(in_features=1536, out_features=384, bias=True): 1, LayerNorm((384,), eps=1e-05, elementwise_affine=True): 1, WindowMSA(
  (qkv): Linear(in_features=384, out_features=1152, bias=True)
  (attn_drop): Dropout(p=0.0, inplace=False)
  (proj): Linear(in_features=384, out_features=384, bias=True)
  (proj_drop): Dropout(p=0.0, inplace=False)
  (softmax): Softmax(dim=-1)
): 1, LayerNorm((384,), eps=1e-05, elementwise_affine=True): 1, Linear(in_features=384, out_features=1536, bias=True): 1, Linear(in_features=1536, out_features=384, bias=True): 1, LayerNorm((384,), eps=1e-05, elementwise_affine=True): 1, WindowMSA(
  (qkv): Linear(in_features=384, out_features=1152, bias=True)
  (attn_drop): Dropout(p=0.0, inplace=False)
  (proj): Linear(in_features=384, out_features=384, bias=True)
  (proj_drop): Dropout(p=0.0, inplace=False)
  (softmax): Softmax(dim=-1)
): 1, LayerNorm((384,), eps=1e-05, elementwise_affine=True): 1, Linear(in_features=384, out_features=1536, bias=True): 1, Linear(in_features=1536, out_features=384, bias=True): 1, PatchMerging(
  (adap_padding): AdaptivePadding()
  (sampler): Unfold(kernel_size=(2, 2), dilation=(1, 1), padding=(0, 0), stride=(2, 2))
  (norm): LayerNorm((1536,), eps=1e-05, elementwise_affine=True)
  (reduction): Linear(in_features=1536, out_features=768, bias=False)
): 1, LayerNorm((384,), eps=1e-05, elementwise_affine=True): 1, LayerNorm((768,), eps=1e-05, elementwise_affine=True): 1, WindowMSA(
  (qkv): Linear(in_features=768, out_features=2304, bias=True)
  (attn_drop): Dropout(p=0.0, inplace=False)
  (proj): Linear(in_features=768, out_features=768, bias=True)
  (proj_drop): Dropout(p=0.0, inplace=False)
  (softmax): Softmax(dim=-1)
): 1, LayerNorm((768,), eps=1e-05, elementwise_affine=True): 1, Linear(in_features=768, out_features=3072, bias=True): 1, Linear(in_features=3072, out_features=768, bias=True): 1, LayerNorm((768,), eps=1e-05, elementwise_affine=True): 1, WindowMSA(
  (qkv): Linear(in_features=768, out_features=2304, bias=True)
  (attn_drop): Dropout(p=0.0, inplace=False)
  (proj): Linear(in_features=768, out_features=768, bias=True)
  (proj_drop): Dropout(p=0.0, inplace=False)
  (softmax): Softmax(dim=-1)
): 1, LayerNorm((768,), eps=1e-05, elementwise_affine=True): 1, Linear(in_features=768, out_features=3072, bias=True): 1, Linear(in_features=3072, out_features=768, bias=True): 1, LayerNorm((768,), eps=1e-05, elementwise_affine=True): 1}


reused =  [Conv2d(3, 96, kernel_size=(4, 4), stride=(4, 4))]
…
<class 'torch_pruning.ops._ReshapeOp'> continue 2
<class 'torch_pruning.ops._ReshapeOp'> continue 2
<class 'torch_pruning.ops._ElementWiseOp'> continue 2
<class 'torch_pruning.ops._ElementWiseOp'> continue 2
<class 'torch_pruning.ops._ElementWiseOp'> continue 2
<class 'torch_pruning.ops._ElementWiseOp'> continue 2
<class 'torch_pruning.ops._ElementWiseOp'> continue 2
<class 'torch_pruning.ops._ElementWiseOp'> continue 2
<class 'torch_pruning.ops._ElementWiseOp'> continue 2
<class 'torch_pruning.ops._ElementWiseOp'> continue 2
SwinTransformer(
  (patch_embed): PatchEmbed(
    (adap_padding): AdaptivePadding()
    (projection): Conv2d(3, 72, kernel_size=(4, 4), stride=(4, 4))
    (norm): LayerNorm((72,), eps=1e-05, elementwise_affine=True)
  )
  (drop_after_pos): Dropout(p=0.0, inplace=False)
  (stages): ModuleList(
    (0): SwinBlockSequence(
      (blocks): ModuleList(
        (0-1): 2 x SwinBlock(
          (norm1): LayerNorm((72,), eps=1e-05, elementwise_affine=True)
          (attn): ShiftWindowMSA(
            (w_msa): WindowMSA(
              (qkv): Linear(in_features=72, out_features=192, bias=True)
              (attn_drop): Dropout(p=0.0, inplace=False)
              (proj): Linear(in_features=72, out_features=72, bias=True)
              (proj_drop): Dropout(p=0.0, inplace=False)
              (softmax): Softmax(dim=-1)
            )
            (drop): DropPath()
          )
          (norm2): LayerNorm((72,), eps=1e-05, elementwise_affine=True)
          (ffn): FFN(
            (layers): Sequential(
              (0): Sequential(
                (0): Linear(in_features=72, out_features=288, bias=True)
                (1): GELU(approximate='none')
                (2): Dropout(p=0.0, inplace=False)
              )
              (1): Linear(in_features=288, out_features=72, bias=True)
              (2): Dropout(p=0.0, inplace=False)
            )
            (dropout_layer): DropPath()
            (gamma2): Identity()
          )
        )
      )
      (downsample): PatchMerging(
        (adap_padding): AdaptivePadding()
        (sampler): Unfold(kernel_size=(2, 2), dilation=(1, 1), padding=(0, 0), stride=(2, 2))
        (norm): LayerNorm((288,), eps=1e-05, elementwise_affine=True)
        (reduction): Linear(in_features=288, out_features=144, bias=False)
      )
    )
    (1): SwinBlockSequence(
      (blocks): ModuleList(
        (0-1): 2 x SwinBlock(
          (norm1): LayerNorm((144,), eps=1e-05, elementwise_affine=True)
          (attn): ShiftWindowMSA(
            (w_msa): WindowMSA(
              (qkv): Linear(in_features=144, out_features=384, bias=True)
              (attn_drop): Dropout(p=0.0, inplace=False)
              (proj): Linear(in_features=144, out_features=144, bias=True)
              (proj_drop): Dropout(p=0.0, inplace=False)
              (softmax): Softmax(dim=-1)
            )
            (drop): DropPath()
          )
          (norm2): LayerNorm((144,), eps=1e-05, elementwise_affine=True)
          (ffn): FFN(
            (layers): Sequential(
              (0): Sequential(
                (0): Linear(in_features=144, out_features=576, bias=True)
                (1): GELU(approximate='none')
                (2): Dropout(p=0.0, inplace=False)
              )
              (1): Linear(in_features=576, out_features=144, bias=True)
              (2): Dropout(p=0.0, inplace=False)
            )
            (dropout_layer): DropPath()
            (gamma2): Identity()
          )
        )
      )
      (downsample): PatchMerging(
        (adap_padding): AdaptivePadding()
        (sampler): Unfold(kernel_size=(2, 2), dilation=(1, 1), padding=(0, 0), stride=(2, 2))
        (norm): LayerNorm((576,), eps=1e-05, elementwise_affine=True)
        (reduction): Linear(in_features=576, out_features=288, bias=False)
      )
    )
    (2): SwinBlockSequence(
      (blocks): ModuleList(
        (0-5): 6 x SwinBlock(
          (norm1): LayerNorm((288,), eps=1e-05, elementwise_affine=True)
          (attn): ShiftWindowMSA(
            (w_msa): WindowMSA(
              (qkv): Linear(in_features=288, out_features=768, bias=True)
              (attn_drop): Dropout(p=0.0, inplace=False)
              (proj): Linear(in_features=288, out_features=288, bias=True)
              (proj_drop): Dropout(p=0.0, inplace=False)
              (softmax): Softmax(dim=-1)
            )
            (drop): DropPath()
          )
          (norm2): LayerNorm((288,), eps=1e-05, elementwise_affine=True)
          (ffn): FFN(
            (layers): Sequential(
              (0): Sequential(
                (0): Linear(in_features=288, out_features=1152, bias=True)
                (1): GELU(approximate='none')
                (2): Dropout(p=0.0, inplace=False)
              )
              (1): Linear(in_features=1152, out_features=288, bias=True)
              (2): Dropout(p=0.0, inplace=False)
            )
            (dropout_layer): DropPath()
            (gamma2): Identity()
          )
        )
      )
      (downsample): PatchMerging(
        (adap_padding): AdaptivePadding()
        (sampler): Unfold(kernel_size=(2, 2), dilation=(1, 1), padding=(0, 0), stride=(2, 2))
        (norm): LayerNorm((1152,), eps=1e-05, elementwise_affine=True)
        (reduction): Linear(in_features=1152, out_features=576, bias=False)
      )
    )
    (3): SwinBlockSequence(
      (blocks): ModuleList(
        (0-1): 2 x SwinBlock(
          (norm1): LayerNorm((576,), eps=1e-05, elementwise_affine=True)
          (attn): ShiftWindowMSA(
            (w_msa): WindowMSA(
              (qkv): Linear(in_features=576, out_features=1536, bias=True)
              (attn_drop): Dropout(p=0.0, inplace=False)
              (proj): Linear(in_features=576, out_features=576, bias=True)
              (proj_drop): Dropout(p=0.0, inplace=False)
              (softmax): Softmax(dim=-1)
            )
            (drop): DropPath()
          )
          (norm2): LayerNorm((576,), eps=1e-05, elementwise_affine=True)
          (ffn): FFN(
            (layers): Sequential(
              (0): Sequential(
                (0): Linear(in_features=576, out_features=2304, bias=True)
                (1): GELU(approximate='none')
                (2): Dropout(p=0.0, inplace=False)
              )
              (1): Linear(in_features=2304, out_features=576, bias=True)
              (2): Dropout(p=0.0, inplace=False)
            )
            (dropout_layer): DropPath()
            (gamma2): Identity()
          )
        )
      )
    )
  )
  (norm1): LayerNorm((144,), eps=1e-05, elementwise_affine=True)
  (norm2): LayerNorm((288,), eps=1e-05, elementwise_affine=True)
  (norm3): LayerNorm((576,), eps=1e-05, elementwise_affine=True)
)
- prev m.qkv.out_features =  192
- prev m.qkv.in_features =  72
 - prev m.num_heads =  3
 - prev m.embed_dims =  96
head_embed_dims =  32
0.1767766952966369 96
 - after m.embed_dims =  96

- prev m.qkv.out_features =  192
- prev m.qkv.in_features =  72
 - prev m.num_heads =  3
 - prev m.embed_dims =  96
head_embed_dims =  32
0.1767766952966369 96
 - after m.embed_dims =  96
…
