…
stage =  3  / self.out_indices =  (1, 2, 3)
self.num_features =  [96, 192, 384, 768]
stage:  3  --- norm_layer out.shape =  torch.Size([1, 1050, 768])
torch.Size([1, 768, 25, 42])
------------SwinTransformer -  [<CloneBackward0 object at 0x7f109575ec40>, <CloneBackward0 object at 0x7f109575eb20>, <CloneBackward0 object at 0x7f1094980400>]



[torch.Size([1, 192, 100, 167]), torch.Size([1, 384, 50, 84]), torch.Size([1, 768, 25, 42])]
Base forward_time =  0.7322895526885986
Base fps =  1.3655800445718547
Sequential(
  (backbone): SwinTransformer(
    (patch_embed): PatchEmbed(
      (adap_padding): AdaptivePadding()
      (projection): Conv2d(3, 96, kernel_size=(4, 4), stride=(4, 4))
      (norm): LayerNorm((96,), eps=1e-05, elementwise_affine=True)
    )
    (drop_after_pos): Dropout(p=0.0, inplace=False)
    (stages): ModuleList(
      (0): SwinBlockSequence(
        (blocks): ModuleList(
          (0-1): 2 x SwinBlock(
            (norm1): LayerNorm((96,), eps=1e-05, elementwise_affine=True)
            (attn): ShiftWindowMSA(
              (w_msa): WindowMSA(
                (qkv): Linear(in_features=96, out_features=288, bias=True)
                (attn_drop): Dropout(p=0.0, inplace=False)
                (proj): Linear(in_features=96, out_features=96, bias=True)
                (proj_drop): Dropout(p=0.0, inplace=False)
                (softmax): Softmax(dim=-1)
              )
              (drop): DropPath()
            )
            (norm2): LayerNorm((96,), eps=1e-05, elementwise_affine=True)
            (ffn): FFN(
              (layers): Sequential(
                (0): Sequential(
                  (0): Linear(in_features=96, out_features=384, bias=True)
                  (1): GELU(approximate='none')
                  (2): Dropout(p=0.0, inplace=False)
                )
                (1): Linear(in_features=384, out_features=96, bias=True)
                (2): Dropout(p=0.0, inplace=False)
              )
              (dropout_layer): DropPath()
              (gamma2): Identity()
            )
          )
        )
        (downsample): PatchMerging(
          (adap_padding): AdaptivePadding()
          (sampler): Unfold(kernel_size=(2, 2), dilation=(1, 1), padding=(0, 0), stride=(2, 2))
          (norm): LayerNorm((384,), eps=1e-05, elementwise_affine=True)
          (reduction): Linear(in_features=384, out_features=192, bias=False)
        )
      )
      (1): SwinBlockSequence(
        (blocks): ModuleList(
          (0-1): 2 x SwinBlock(
            (norm1): LayerNorm((192,), eps=1e-05, elementwise_affine=True)
            (attn): ShiftWindowMSA(
              (w_msa): WindowMSA(
                (qkv): Linear(in_features=192, out_features=576, bias=True)
                (attn_drop): Dropout(p=0.0, inplace=False)
                (proj): Linear(in_features=192, out_features=192, bias=True)
                (proj_drop): Dropout(p=0.0, inplace=False)
                (softmax): Softmax(dim=-1)
              )
              (drop): DropPath()
            )
            (norm2): LayerNorm((192,), eps=1e-05, elementwise_affine=True)
            (ffn): FFN(
              (layers): Sequential(
                (0): Sequential(
                  (0): Linear(in_features=192, out_features=768, bias=True)
                  (1): GELU(approximate='none')
                  (2): Dropout(p=0.0, inplace=False)
                )
                (1): Linear(in_features=768, out_features=192, bias=True)
                (2): Dropout(p=0.0, inplace=False)
              )
              (dropout_layer): DropPath()
              (gamma2): Identity()
            )
          )
        )
        (downsample): PatchMerging(
          (adap_padding): AdaptivePadding()
          (sampler): Unfold(kernel_size=(2, 2), dilation=(1, 1), padding=(0, 0), stride=(2, 2))
          (norm): LayerNorm((768,), eps=1e-05, elementwise_affine=True)
          (reduction): Linear(in_features=768, out_features=384, bias=False)
        )
      )
      (2): SwinBlockSequence(
        (blocks): ModuleList(
          (0-5): 6 x SwinBlock(
            (norm1): LayerNorm((384,), eps=1e-05, elementwise_affine=True)
            (attn): ShiftWindowMSA(
              (w_msa): WindowMSA(
                (qkv): Linear(in_features=384, out_features=1152, bias=True)
                (attn_drop): Dropout(p=0.0, inplace=False)
                (proj): Linear(in_features=384, out_features=384, bias=True)
                (proj_drop): Dropout(p=0.0, inplace=False)
                (softmax): Softmax(dim=-1)
              )
              (drop): DropPath()
            )
            (norm2): LayerNorm((384,), eps=1e-05, elementwise_affine=True)
            (ffn): FFN(
              (layers): Sequential(
                (0): Sequential(
                  (0): Linear(in_features=384, out_features=1536, bias=True)
                  (1): GELU(approximate='none')
                  (2): Dropout(p=0.0, inplace=False)
                )
                (1): Linear(in_features=1536, out_features=384, bias=True)
                (2): Dropout(p=0.0, inplace=False)
              )
              (dropout_layer): DropPath()
              (gamma2): Identity()
            )
          )
        )
        (downsample): PatchMerging(
          (adap_padding): AdaptivePadding()
          (sampler): Unfold(kernel_size=(2, 2), dilation=(1, 1), padding=(0, 0), stride=(2, 2))
          (norm): LayerNorm((1536,), eps=1e-05, elementwise_affine=True)
          (reduction): Linear(in_features=1536, out_features=768, bias=False)
        )
      )
      (3): SwinBlockSequence(
        (blocks): ModuleList(
          (0-1): 2 x SwinBlock(
            (norm1): LayerNorm((768,), eps=1e-05, elementwise_affine=True)
            (attn): ShiftWindowMSA(
              (w_msa): WindowMSA(
                (qkv): Linear(in_features=768, out_features=2304, bias=True)
                (attn_drop): Dropout(p=0.0, inplace=False)
                (proj): Linear(in_features=768, out_features=768, bias=True)
                (proj_drop): Dropout(p=0.0, inplace=False)
                (softmax): Softmax(dim=-1)
              )
              (drop): DropPath()
            )
            (norm2): LayerNorm((768,), eps=1e-05, elementwise_affine=True)
            (ffn): FFN(
              (layers): Sequential(
                (0): Sequential(
                  (0): Linear(in_features=768, out_features=3072, bias=True)
                  (1): GELU(approximate='none')
                  (2): Dropout(p=0.0, inplace=False)
                )
                (1): Linear(in_features=3072, out_features=768, bias=True)
                (2): Dropout(p=0.0, inplace=False)
              )
              (dropout_layer): DropPath()
              (gamma2): Identity()
            )
          )
        )
      )
    )
    (norm1): LayerNorm((192,), eps=1e-05, elementwise_affine=True)
    (norm2): LayerNorm((384,), eps=1e-05, elementwise_affine=True)
    (norm3): LayerNorm((768,), eps=1e-05, elementwise_affine=True)
  )
  (neck): ChannelMapper(
    (convs): ModuleList(
      (0): ConvModule(
        (conv): Conv2d(192, 256, kernel_size=(1, 1), stride=(1, 1))
        (gn): GroupNorm(32, 256, eps=1e-05, affine=True)
      )
      (1): ConvModule(
        (conv): Conv2d(384, 256, kernel_size=(1, 1), stride=(1, 1))
        (gn): GroupNorm(32, 256, eps=1e-05, affine=True)
      )
      (2): ConvModule(
        (conv): Conv2d(768, 256, kernel_size=(1, 1), stride=(1, 1))
        (gn): GroupNorm(32, 256, eps=1e-05, affine=True)
      )
    )
    (extra_convs): ModuleList(
      (0): ConvModule(
        (conv): Conv2d(768, 256, kernel_size=(3, 3), stride=(2, 2), padding=(1, 1))
        (gn): GroupNorm(32, 256, eps=1e-05, affine=True)
      )
    )
  )
  init_cfg={'type': 'Xavier', 'layer': 'Conv2d', 'distribution': 'uniform'}
)
>>>>>>>>>>>>>>>>_freeze_stages =  -1
-----NEW SwinTransformer FORWARD PASS 



		SwinTransformer input shape:  torch.Size([1, 3, 800, 1333])


------------SwinBlockSequence -  torch.Size([1, 66800, 96])
…
_record_grad_fn <class 'torch.nn.modules.conv.Conv2d'>, True, grad_fn: <ConvolutionBackward0 object at 0x7f1083ed2d30>
_record_grad_fn <class 'torch.nn.modules.normalization.GroupNorm'>, True, grad_fn: <NativeGroupNormBackward0 object at 0x7f1083ed2d60>
_record_grad_fn <class 'torch.nn.modules.conv.Conv2d'>, True, grad_fn: <ConvolutionBackward0 object at 0x7f1083ed2c40>
_record_grad_fn <class 'torch.nn.modules.normalization.GroupNorm'>, True, grad_fn: <NativeGroupNormBackward0 object at 0x7f1083ed2e80>

visited =  {Conv2d(3, 96, kernel_size=(4, 4), stride=(4, 4)): 2, LayerNorm((96,), eps=1e-05, elementwise_affine=True): 1, LayerNorm((96,), eps=1e-05, elementwise_affine=True): 1, WindowMSA(
  (qkv): Linear(in_features=96, out_features=288, bias=True)
  (attn_drop): Dropout(p=0.0, inplace=False)
  (proj): Linear(in_features=96, out_features=96, bias=True)
  (proj_drop): Dropout(p=0.0, inplace=False)
  (softmax): Softmax(dim=-1)
): 1, LayerNorm((96,), eps=1e-05, elementwise_affine=True): 1, Linear(in_features=96, out_features=384, bias=True): 1, Linear(in_features=384, out_features=96, bias=True): 1, LayerNorm((96,), eps=1e-05, elementwise_affine=True): 1, WindowMSA(
  (qkv): Linear(in_features=96, out_features=288, bias=True)
  (attn_drop): Dropout(p=0.0, inplace=False)
  (proj): Linear(in_features=96, out_features=96, bias=True)
  (proj_drop): Dropout(p=0.0, inplace=False)
  (softmax): Softmax(dim=-1)
): 1, LayerNorm((96,), eps=1e-05, elementwise_affine=True): 1, Linear(in_features=96, out_features=384, bias=True): 1, Linear(in_features=384, out_features=96, bias=True): 1, PatchMerging(
  (adap_padding): AdaptivePadding()
  (sampler): Unfold(kernel_size=(2, 2), dilation=(1, 1), padding=(0, 0), stride=(2, 2))
  (norm): LayerNorm((384,), eps=1e-05, elementwise_affine=True)
  (reduction): Linear(in_features=384, out_features=192, bias=False)
): 1, LayerNorm((192,), eps=1e-05, elementwise_affine=True): 1, WindowMSA(
  (qkv): Linear(in_features=192, out_features=576, bias=True)
  (attn_drop): Dropout(p=0.0, inplace=False)
  (proj): Linear(in_features=192, out_features=192, bias=True)
  (proj_drop): Dropout(p=0.0, inplace=False)
  (softmax): Softmax(dim=-1)
): 1, LayerNorm((192,), eps=1e-05, elementwise_affine=True): 1, Linear(in_features=192, out_features=768, bias=True): 1, Linear(in_features=768, out_features=192, bias=True): 1, LayerNorm((192,), eps=1e-05, elementwise_affine=True): 1, WindowMSA(
  (qkv): Linear(in_features=192, out_features=576, bias=True)
  (attn_drop): Dropout(p=0.0, inplace=False)
  (proj): Linear(in_features=192, out_features=192, bias=True)
  (proj_drop): Dropout(p=0.0, inplace=False)
  (softmax): Softmax(dim=-1)
): 1, LayerNorm((192,), eps=1e-05, elementwise_affine=True): 1, Linear(in_features=192, out_features=768, bias=True): 1, Linear(in_features=768, out_features=192, bias=True): 1, PatchMerging(
  (adap_padding): AdaptivePadding()
  (sampler): Unfold(kernel_size=(2, 2), dilation=(1, 1), padding=(0, 0), stride=(2, 2))
  (norm): LayerNorm((768,), eps=1e-05, elementwise_affine=True)
  (reduction): Linear(in_features=768, out_features=384, bias=False)
): 1, LayerNorm((192,), eps=1e-05, elementwise_affine=True): 1, LayerNorm((384,), eps=1e-05, elementwise_affine=True): 1, WindowMSA(
  (qkv): Linear(in_features=384, out_features=1152, bias=True)
  (attn_drop): Dropout(p=0.0, inplace=False)
  (proj): Linear(in_features=384, out_features=384, bias=True)
  (proj_drop): Dropout(p=0.0, inplace=False)
  (softmax): Softmax(dim=-1)
): 1, LayerNorm((384,), eps=1e-05, elementwise_affine=True): 1, Linear(in_features=384, out_features=1536, bias=True): 1, Linear(in_features=1536, out_features=384, bias=True): 1, LayerNorm((384,), eps=1e-05, elementwise_affine=True): 1, WindowMSA(
  (qkv): Linear(in_features=384, out_features=1152, bias=True)
  (attn_drop): Dropout(p=0.0, inplace=False)
  (proj): Linear(in_features=384, out_features=384, bias=True)
  (proj_drop): Dropout(p=0.0, inplace=False)
  (softmax): Softmax(dim=-1)
): 1, LayerNorm((384,), eps=1e-05, elementwise_affine=True): 1, Linear(in_features=384, out_features=1536, bias=True): 1, Linear(in_features=1536, out_features=384, bias=True): 1, LayerNorm((384,), eps=1e-05, elementwise_affine=True): 1, WindowMSA(
  (qkv): Linear(in_features=384, out_features=1152, bias=True)
  (attn_drop): Dropout(p=0.0, inplace=False)
  (proj): Linear(in_features=384, out_features=384, bias=True)
  (proj_drop): Dropout(p=0.0, inplace=False)
  (softmax): Softmax(dim=-1)
): 1, LayerNorm((384,), eps=1e-05, elementwise_affine=True): 1, Linear(in_features=384, out_features=1536, bias=True): 1, Linear(in_features=1536, out_features=384, bias=True): 1, LayerNorm((384,), eps=1e-05, elementwise_affine=True): 1, WindowMSA(
  (qkv): Linear(in_features=384, out_features=1152, bias=True)
  (attn_drop): Dropout(p=0.0, inplace=False)
  (proj): Linear(in_features=384, out_features=384, bias=True)
  (proj_drop): Dropout(p=0.0, inplace=False)
  (softmax): Softmax(dim=-1)
): 1, LayerNorm((384,), eps=1e-05, elementwise_affine=True): 1, Linear(in_features=384, out_features=1536, bias=True): 1, Linear(in_features=1536, out_features=384, bias=True): 1, LayerNorm((384,), eps=1e-05, elementwise_affine=True): 1, WindowMSA(
  (qkv): Linear(in_features=384, out_features=1152, bias=True)
  (attn_drop): Dropout(p=0.0, inplace=False)
  (proj): Linear(in_features=384, out_features=384, bias=True)
  (proj_drop): Dropout(p=0.0, inplace=False)
  (softmax): Softmax(dim=-1)
): 1, LayerNorm((384,), eps=1e-05, elementwise_affine=True): 1, Linear(in_features=384, out_features=1536, bias=True): 1, Linear(in_features=1536, out_features=384, bias=True): 1, LayerNorm((384,), eps=1e-05, elementwise_affine=True): 1, WindowMSA(
  (qkv): Linear(in_features=384, out_features=1152, bias=True)
  (attn_drop): Dropout(p=0.0, inplace=False)
  (proj): Linear(in_features=384, out_features=384, bias=True)
  (proj_drop): Dropout(p=0.0, inplace=False)
  (softmax): Softmax(dim=-1)
): 1, LayerNorm((384,), eps=1e-05, elementwise_affine=True): 1, Linear(in_features=384, out_features=1536, bias=True): 1, Linear(in_features=1536, out_features=384, bias=True): 1, PatchMerging(
  (adap_padding): AdaptivePadding()
  (sampler): Unfold(kernel_size=(2, 2), dilation=(1, 1), padding=(0, 0), stride=(2, 2))
  (norm): LayerNorm((1536,), eps=1e-05, elementwise_affine=True)
  (reduction): Linear(in_features=1536, out_features=768, bias=False)
): 1, LayerNorm((384,), eps=1e-05, elementwise_affine=True): 1, LayerNorm((768,), eps=1e-05, elementwise_affine=True): 1, WindowMSA(
  (qkv): Linear(in_features=768, out_features=2304, bias=True)
  (attn_drop): Dropout(p=0.0, inplace=False)
  (proj): Linear(in_features=768, out_features=768, bias=True)
  (proj_drop): Dropout(p=0.0, inplace=False)
  (softmax): Softmax(dim=-1)
): 1, LayerNorm((768,), eps=1e-05, elementwise_affine=True): 1, Linear(in_features=768, out_features=3072, bias=True): 1, Linear(in_features=3072, out_features=768, bias=True): 1, LayerNorm((768,), eps=1e-05, elementwise_affine=True): 1, WindowMSA(
  (qkv): Linear(in_features=768, out_features=2304, bias=True)
  (attn_drop): Dropout(p=0.0, inplace=False)
  (proj): Linear(in_features=768, out_features=768, bias=True)
  (proj_drop): Dropout(p=0.0, inplace=False)
  (softmax): Softmax(dim=-1)
): 1, LayerNorm((768,), eps=1e-05, elementwise_affine=True): 1, Linear(in_features=768, out_features=3072, bias=True): 1, Linear(in_features=3072, out_features=768, bias=True): 1, LayerNorm((768,), eps=1e-05, elementwise_affine=True): 1, Conv2d(192, 256, kernel_size=(1, 1), strid
…
[0] prune_out_channels on neck.extra_convs.0.conv (Conv2d(576, 256, kernel_size=(3, 3), stride=(2, 2), padding=(1, 1))) => prune_out_channels on neck.extra_convs.0.conv (Conv2d(576, 256, kernel_size=(3, 3), stride=(2, 2), padding=(1, 1))), #idxs=64
[1] prune_out_channels on neck.extra_convs.0.conv (Conv2d(576, 256, kernel_size=(3, 3), stride=(2, 2), padding=(1, 1))) => prune_out_channels on neck.extra_convs.0.gn (GroupNorm(32, 256, eps=1e-05, affine=True)), #idxs=64
--------------------------------

Sequential(
  (backbone): SwinTransformer(
    (patch_embed): PatchEmbed(
      (adap_padding): AdaptivePadding()
      (projection): Conv2d(3, 72, kernel_size=(4, 4), stride=(4, 4))
      (norm): LayerNorm((72,), eps=1e-05, elementwise_affine=True)
    )
    (drop_after_pos): Dropout(p=0.0, inplace=False)
    (stages): ModuleList(
      (0): SwinBlockSequence(
        (blocks): ModuleList(
          (0-1): 2 x SwinBlock(
            (norm1): LayerNorm((72,), eps=1e-05, elementwise_affine=True)
            (attn): ShiftWindowMSA(
              (w_msa): WindowMSA(
                (qkv): Linear(in_features=72, out_features=192, bias=True)
                (attn_drop): Dropout(p=0.0, inplace=False)
                (proj): Linear(in_features=72, out_features=72, bias=True)
                (proj_drop): Dropout(p=0.0, inplace=False)
                (softmax): Softmax(dim=-1)
              )
              (drop): DropPath()
            )
            (norm2): LayerNorm((72,), eps=1e-05, elementwise_affine=True)
            (ffn): FFN(
              (layers): Sequential(
                (0): Sequential(
                  (0): Linear(in_features=72, out_features=288, bias=True)
                  (1): GELU(approximate='none')
                  (2): Dropout(p=0.0, inplace=False)
                )
                (1): Linear(in_features=288, out_features=72, bias=True)
                (2): Dropout(p=0.0, inplace=False)
              )
              (dropout_layer): DropPath()
              (gamma2): Identity()
            )
          )
        )
        (downsample): PatchMerging(
          (adap_padding): AdaptivePadding()
          (sampler): Unfold(kernel_size=(2, 2), dilation=(1, 1), padding=(0, 0), stride=(2, 2))
          (norm): LayerNorm((288,), eps=1e-05, elementwise_affine=True)
          (reduction): Linear(in_features=288, out_features=144, bias=False)
        )
      )
      (1): SwinBlockSequence(
        (blocks): ModuleList(
          (0-1): 2 x SwinBlock(
            (norm1): LayerNorm((144,), eps=1e-05, elementwise_affine=True)
            (attn): ShiftWindowMSA(
              (w_msa): WindowMSA(
                (qkv): Linear(in_features=144, out_features=384, bias=True)
                (attn_drop): Dropout(p=0.0, inplace=False)
                (proj): Linear(in_features=144, out_features=144, bias=True)
                (proj_drop): Dropout(p=0.0, inplace=False)
                (softmax): Softmax(dim=-1)
              )
              (drop): DropPath()
            )
            (norm2): LayerNorm((144,), eps=1e-05, elementwise_affine=True)
            (ffn): FFN(
              (layers): Sequential(
                (0): Sequential(
                  (0): Linear(in_features=144, out_features=576, bias=True)
                  (1): GELU(approximate='none')
                  (2): Dropout(p=0.0, inplace=False)
                )
                (1): Linear(in_features=576, out_features=144, bias=True)
                (2): Dropout(p=0.0, inplace=False)
              )
              (dropout_layer): DropPath()
              (gamma2): Identity()
            )
          )
        )
        (downsample): PatchMerging(
          (adap_padding): AdaptivePadding()
          (sampler): Unfold(kernel_size=(2, 2), dilation=(1, 1), padding=(0, 0), stride=(2, 2))
          (norm): LayerNorm((576,), eps=1e-05, elementwise_affine=True)
          (reduction): Linear(in_features=576, out_features=288, bias=False)
        )
      )
      (2): SwinBlockSequence(
        (blocks): ModuleList(
          (0-5): 6 x SwinBlock(
            (norm1): LayerNorm((288,), eps=1e-05, elementwise_affine=True)
            (attn): ShiftWindowMSA(
              (w_msa): WindowMSA(
                (qkv): Linear(in_features=288, out_features=768, bias=True)
                (attn_drop): Dropout(p=0.0, inplace=False)
                (proj): Linear(in_features=288, out_features=288, bias=True)
                (proj_drop): Dropout(p=0.0, inplace=False)
                (softmax): Softmax(dim=-1)
              )
              (drop): DropPath()
            )
            (norm2): LayerNorm((288,), eps=1e-05, elementwise_affine=True)
            (ffn): FFN(
              (layers): Sequential(
                (0): Sequential(
                  (0): Linear(in_features=288, out_features=1152, bias=True)
                  (1): GELU(approximate='none')
                  (2): Dropout(p=0.0, inplace=False)
                )
                (1): Linear(in_features=1152, out_features=288, bias=True)
                (2): Dropout(p=0.0, inplace=False)
              )
              (dropout_layer): DropPath()
              (gamma2): Identity()
            )
          )
        )
        (downsample): PatchMerging(
          (adap_padding): AdaptivePadding()
          (sampler): Unfold(kernel_size=(2, 2), dilation=(1, 1), padding=(0, 0), stride=(2, 2))
          (norm): LayerNorm((1152,), eps=1e-05, elementwise_affine=True)
          (reduction): Linear(in_features=1152, out_features=576, bias=False)
        )
      )
      (3): SwinBlockSequence(
        (blocks): ModuleList(
          (0-1): 2 x SwinBlock(
            (norm1): LayerNorm((576,), eps=1e-05, elementwise_affine=True)
            (attn): ShiftWindowMSA(
              (w_msa): WindowMSA(
                (qkv): Linear(in_features=576, out_features=1536, bias=True)
                (attn_drop): Dropout(p=0.0, inplace=False)
                (proj): Linear(in_features=576, out_features=576, bias=True)
                (proj_drop): Dropout(p=0.0, inplace=False)
                (softmax): Softmax(dim=-1)
              )
              (drop): DropPath()
            )
            (norm2): LayerNorm((576,), eps=1e-05, elementwise_affine=True)
            (ffn): FFN(
              (layers): Sequential(
                (0): Sequential(
                  (0): Linear(in_features=576, out_features=2304, bias=True)
                  (1): GELU(approximate='none')
                  (2): Dropout(p=0.0, inplace=False)
                )
                (1): Linear(in_features=2304, out_features=576, bias=True)
                (2): Dropout(p=0.0, inplace=False)
              )
              (dropout_layer): DropPath()
              (gamma2): Identity()
            )
          )
        )
      )
    )
    (norm1): LayerNorm((144,), eps=1e-05, elementwise_affine=True)
    (norm2): LayerNorm((288,), eps=1e-05, elementwise_affine=True)
    (norm3): LayerNorm((576,), eps=1e-05, elementwise_affine=True)
  )
  (neck): ChannelMapper(
    (convs): ModuleList(
      (0): ConvModule(
        (conv): Conv2d(144, 192, kernel_size=(1, 1), stride=(1, 1))
        (gn): GroupNorm(32, 192, eps=1e-05, affine=True)
      )
      (1): ConvModule(
        (conv): Conv2d(288, 192, kernel_size=(1, 1), stride=(1, 1))
        (gn): GroupNorm(32, 192, eps=1e-05, affine=True)
      )
      (2): ConvModule(
        (conv): Conv2d(576, 192, kernel_size=(1, 1), stride=(1, 1))
        (gn): GroupNorm(32, 192, eps=1e-05, affine=True)
      )
    )
    (extra_convs): ModuleList(
      (0): ConvModule(
        (conv): Conv2d(576, 192, kernel_size=(3, 3), stride=(2, 2), padding=(1, 1))
        (gn): GroupNorm(32, 192, eps=1e-05, affine=True)
      )
    )
  )
  init_cfg={'type': 'Xavier', 'layer': 'Conv2d', 'distribution': 'uniform'}
)
- prev m.qkv.out_features =  192
- prev m.qkv.in_features =  72
 - prev m.num_heads =  3
 - prev m.embed_dims =  96
head_embed_dims =  32
0.1767766952966369 96
 - after m.embed_dims =  192
…
